ChatBot/backend/data.pth (torch, 5738 bytes, 6 tensors)

l1.weight f4 [8, 59]
000000 b2 07 be 3e 7b 00 96 3e f4 0b 4d be 7e 02 c1 3e
       0.37115246 0.29297242 -0.20024091 0.37697214
000010 b1 38 8c 3e 5b d1 94 3e d8 ef 17 3e 48 5b e1 3e
       0.27387002 0.29065976 0.14837587 0.44014955
000020 d7 02 28 bf f1 ea d2 3e 7e 78 00 be 71 76 e5 be
       -0.65629333 0.4119487 -0.12545964 -0.44816926
000030 c4 44 87 be 44 32 9f 3e 03 89 db be 13 ba a5 3e
       -0.26419652 0.31093037 -0.4287797 0.32368526
000040 81 7c 37 be 9e 73 a9 3e f0 d8 9b be 41 19 8f 3e
       -0.17918588 0.3309602 -0.30438948 0.27948955
000050 68 cc 8f 3e f0 e4 24 bf 05 d8 bf 3e 74 45 df 3e
       0.28085637 -0.6441183 0.37469497 0.43607676
000060 fb d0 02 3e 3a 6a e6 3e 3f e9 d3 3e 8a 43 77 3e
       0.12775032 0.4500292 0.4138889 0.24146858
000070 dc d9 a5 3e 8a f2 a5 3e c3 fc 81 3e 71 59 d2 3e
       0.32392776 0.32411605 0.25388154 0.41083863
000080 f8 e4 b0 3e 4d df cf be 24 0f 02 3e 8a f6 3c be
       0.3454969 -0.40600052 0.12701088 -0.18453422
000090 b2 df c4 3e 49 58 ad be 2f 7c b3 bd d6 36 c9 3e
       0.38451916 -0.3385642 -0.087639205 0.3929965
0000a0 20 e9 c6 be cd c1 b2 3e c4 3d 48 be 4b 3f 30 be
       -0.38849735 0.34913483 -0.19554812 -0.17211644
0000b0 40 55 63 3e 54 5d d3 be 4c aa b8 3e c1 4d 5e be
       0.22200489 -0.4128214 0.36067426 -0.21709348
0000c0 c5 9d bb be cb af ab be 46 b6 a4 3e 87 b1 5b 3e
       -0.36643806 -0.33532557 0.32170314 0.2145444
0000d0 12 c8 e7 3e 5f bd 1d 3f b5 40 ca be c6 b6 57 3e
       0.4526983 0.6161708 -0.39502493 0.21065816
0000e0 6d 60 ae 3e e8 66 0d be 54 c4 8b 3e a6 e3 56 3f
       0.34057942 -0.13808787 0.27298224 0.83941114
0000f0 4b 13 29 3f c0 81 c3 be 62 f1 a4 3e 4a 11 a0 3e
       0.66045064 -0.3818493 0.3221541 0.3126319
000100 bd 73 c1 3e 9b 91 c3 3c 63 ed 61 be 30 aa 38 bf
       0.37783614 0.023873141 -0.22063212 -0.72134686
000110 3c 17 0e 3e 79 1c 2d be 5a 2c 0c bf 05 62 16 be
       0.1387605 -0.16905393 -0.54755175 -0.14685829
000120 b0 bf 83 3e 0e 4f a6 be 0d 6c 86 be da 03 76 be
       0.25732183 -0.3248219 -0.2625431 -0.24024907
000130 ef 93 a7 3e c1 11 99 bd 62 65 4c 3e de 0c 91 3e
       0.32730052 -0.074740894 0.1996055 0.2833013
000140 f5 28 06 bf 20 33 3c 3e 05 d7 01 3f 8e 0d 3d 3f
       -0.52406245 0.18378878 0.5071872 0.7384881
000150 a3 ee d3 3e b9 16 19 3f f0 80 c5 3e db f5 10 3e
       0.41393003 0.598003 0.38574934 0.14156286
000160 8a 0c 90 3e f2 8e aa 3e 30 58 b9 3e 10 33 7a bb
       0.28134567 0.33312184 0.36200094 -0.0038177408
000170 7c 3d b2 be dc e2 dc 3d f7 bb 84 be f0 0a 2a 3f
       -0.34812534 0.107854575 -0.25924656 0.6642294
000180 c8 31 93 be 16 f0 f8 3d 5c 44 87 3c 67 06 b1 be
       -0.28748918 0.12155168 0.016512088 -0.34575197
000190 c6 06 fa 3e 37 94 cd be d4 21 91 be 39 f8 80 3e
       0.48833293 -0.4015214 -0.2834612 0.2518938
0001a0 ca 3b e5 be f2 4a b0 3e d6 58 a6 be 23 fd 72 3e
       -0.44772178 0.3443218 -0.3248965 0.23729376
0001b0 87 d6 ab be 21 6c a1 3f af 81 36 3f 03 b8 e9 3e
       -0.3356211 1.2611123 0.7129163 0.45648202
0001c0 e0 9a b1 3e 8e 21 c0 be f1 c6 e9 3e 73 89 a5 3e
       0.34688473 -0.375256 0.45659593 0.32331428
0001d0 e0 36 bd be 23 69 21 3e 58 af 94 bd 3d 6d 26 bb
       -0.3695593 0.15762763 -0.07260007 -0.00253947
0001e0 18 84 d3 3e b4 98 89 bd 59 18 b9 bc ca b1 ba 3e
       0.41311717 -0.06718579 -0.022594618 0.36463767
0001f0 e8 72 2d 3f 88 ef 97 3e 58 db dc be 69 42 7a 3d
       0.6775346 0.29674935 -0.43136096 0.06109849
000200 d6 fb 60 3e 59 6d c5 3e d5 8b 9d 3e a9 0a d7 3e
       0.21971068 0.38559988 0.30770746 0.4200032
000210 2c b9 a8 3e fa 52 30 3f e1 53 b5 3e 09 a2 13 3d
       0.32953775 0.6887661 0.35415557 0.0360432
000220 e1 5b b1 3e ad 83 e0 3e 91 b3 c2 3e f4 06 01 bf
       0.3464041 0.4385046 0.38027623 -0.50401235
000230 1f 77 5b 3e ca 3f 57 3f 02 44 9b be c0 b6 73 3f
       0.2143216 0.8408171 -0.30325323 0.9520073
000240 3c a7 4e 3f c8 ac c3 3e d2 cc 5e 3e 8d 1d fa 3e
       0.8072393 0.3821776 0.2175782 0.4885067
000250 5c 12 fc 3e 30 a2 9d 3e 74 43 89 3e a0 2c 97 bd
       0.49232757 0.30787802 0.26809275 -0.073815584
000260 f0 ea 06 bd cd 45 b4 3e 7e 9e e6 bb fd 90 e9 3e
       -0.032938898 0.35209504 -0.0070379367 0.4561843
000270 e8 ee 5d 3e 4c ac 1e 3e f1 5b a7 3e a9 48 5e be
       0.21673167 0.15495414 0.32687333 -0.21707405
000280 a7 51 cd 3e 5c 5a 9e 3e ba 2a f6 bd 3a f2 96 be
       0.40101358 0.30928314 -0.12019868 -0.2948168
000290 d8 46 2a 3e c6 06 fe 3d 47 5f 00 bf d7 17 00 3f
       0.16628587 0.12403636 -0.5014538 0.50036377
0002a0 c7 16 25 bf de 66 ab be 07 da bc 3e 8a 94 eb 3e
       -0.6448788 -0.3347692 0.36885092 0.46011764
0002b0 23 5a 83 3e 25 a6 db bd 7c 0e 97 3e d4 f6 90 3e
       0.25654706 -0.10725049 0.29503238 0.28313315
0002c0 2c 74 bc 3d 46 ef c7 bd 00 28 b8 3d 16 f8 08 3f
       0.092018455 -0.09762435 0.089920044 0.5350355
0002d0 45 b0 6a be d5 1e ea bd df 0e 7a be bd 52 d8 3e
       -0.22918804 -0.11431662 -0.24419735 0.42250624
0002e0 ac 21 1b 3f cf 0a 96 3e 30 c7 9c 3e 76 12 ea 3e
       0.60598254 0.2930512 0.30620718 0.4571721
0002f0 40 0d 0e 3f 5d 85 b4 3e 83 3e 8a be 01 0f 09 bc
       0.5548897 0.35257998 -0.27000818 -0.008365394
000300 fd e3 2c 3f 08 f8 1b be 1e ca 79 be 6a 4b ea bd
       0.6753538 -0.15231335 -0.24393508 -0.11440165
000310 d8 a8 ed bd a5 8b 41 be 8f be dc 3e 16 1a a9 3e
       -0.1160447 -0.18900926 0.43114135 0.33027714
000320 02 5d d7 be c4 45 5a be e7 79 da be 53 38 aa be
       -0.42063147 -0.21315676 -0.4267113 -0.33246097
000330 c6 94 45 bf 9a b1 8c 3e 0f 26 97 be 74 a2 33 3d
       -0.77180135 0.2747925 -0.29521224 0.0438561
000340 85 dc bc 3e 3d 7c b8 3e bf 47 91 3e f9 68 ea be
       0.36886993 0.36032286 0.2837505 -0.45783213
000350 4f cb f9 bb 79 0c b2 bd 85 d6 f6 3e 96 f6 94 be
       -0.007623113 -0.08693785 0.4821054 -0.2909438
000360 55 02 d6 3e 69 8c 07 3f 95 c5 4b be a5 05 17 3f
       0.41798654 0.52948624 -0.1989959 0.5899299
000370 99 c6 0d 3f 97 a1 e3 bd 65 c0 55 3e b4 d6 fe 3e
       0.5538116 -0.11114805 0.20874174 0.4977318
000380 2a 37 f1 bd 68 5b 89 be cd 0c dd 3e 41 2b 2a bf
       -0.117781 -0.2682755 0.4317383 -0.6647225
000390 08 f0 af bd 3c 2a 9d 3e e5 d9 1e 3f 4b 6e aa bd
       -0.08590704 0.30696285 0.6205123 -0.08321818
0003a0 b2 08 15 bf cd 24 07 3f 60 f5 07 3f 79 95 a6 3e
       -0.58216393 0.5279053 0.5310879 0.32535914
0003b0 a9 23 90 be 31 a9 cc 3b 90 9c 84 3e 33 22 29 3c
       -0.28152207 0.006245755 0.25900698 0.010323095
0003c0 95 33 19 be 89 a0 06 3d 82 60 01 bf 4a e8 a7 be
       -0.14961083 0.032867942 -0.50537884 -0.3279441
0003d0 9a 78 b7 3e 17 4a fa bd 97 e5 ed bd c2 2f 03 bd
       0.358342 -0.12221163 -0.116160564 -0.032027967
0003e0 57 d5 54 be 92 27 07 be 2c e6 24 3f ea 42 2f 3e
       -0.20784508 -0.13198689 0.64413714 0.1711537
0003f0 db ec 16 3f 15 e0 9d 3c 7a 59 9e 3e de 8c d6 bd
       0.5895516 0.01927189 0.3092764 -0.10476087

l1.bias f4 [8]
000000 19 b5 2c 3f ee 38 46 3f 59 72 3a 3f 7c 04 eb 3e
       0.67463833 0.7743062 0.7283073 0.4590186
000010 ff ee 11 3f fc 96 22 3f a4 ca b4 3e a2 fa 27 3f
       0.57005304 0.63511634 0.35310853 0.6561681

l2.weight f4 [8, 8]
000000 cb b2 1d 3f 62 1c 19 be f5 4a 56 3f ef d6 82 3f
       0.6160094 -0.14952233 0.83708125 1.0221843
000010 ac e1 1f bf 1e b3 5a bf d8 56 a7 be 98 1a 9a 3f
       -0.6245372 -0.8542956 -0.32683444 1.2039366
000020 d4 56 61 3e 0b 6b 46 3d 25 e8 5d 3f 51 0a 8d bf
       0.22005779 0.048441928 0.8668235 -1.1018773
000030 de d5 6c 3f c6 17 af be 27 c5 ad 3f e2 08 34 3f
       0.92513835 -0.34197825 1.3575791 0.70326054
000040 6e 3e 95 be 76 9c 13 3e ec d2 c8 3d b4 19 9f be
       -0.29149193 0.14415154 0.09805855 -0.31074297
000050 7e f7 af be 21 94 5d be d0 9e 8a 3d 6e 32 a4 be
       -0.3436851 -0.21638538 0.06768572 -0.32069725
000060 df ee 39 3f ba 10 0c be 7d 4b c3 3e d9 5f 72 3f
       0.72630113 -0.13678256 0.3814353 0.946775
000070 0b 9e 1e bf 69 cb f6 be 0c e6 70 bf 49 6b 17 3d
       -0.61959904 -0.48202065 -0.94101024 0.03696755
000080 d4 b3 5e 3f c9 7d b2 3f 75 8a b7 3e 2b bb 9c bd
       0.86993146 1.3944637 0.35847822 -0.07652887
000090 d2 2a 99 be 04 bd ea be 58 23 99 bf 3e ee 09 3e
       -0.29915482 -0.45847332 -1.1963911 0.13469788
0000a0 3d 6d 34 bf 86 36 6c bf ba 15 ec 3e 9b b8 84 3f
       -0.70479184 -0.92270696 0.46110326 1.0368837
0000b0 98 0a 91 3f 0f e6 99 3f 0f d3 06 be 82 6c fe 3e
       1.1331358 1.2023333 -0.1316645 0.4969216
0000c0 bb 55 8f 3f 84 5f b2 3f 97 3b ea bc ab 10 83 bf
       1.1198038 1.3935399 -0.028592868 -1.0239462
0000d0 06 0e f5 be 84 63 18 3f bd 39 1b 3f e8 b9 8f 3e
       -0.47862262 0.5952685 0.60634977 0.28071523
0000e0 1d ec 50 3f fb d8 86 bd b1 9b 82 3f 17 43 61 3f
       0.8161028 -0.065843545 1.0203763 0.87992996
0000f0 66 bd 93 3e ad fb 85 bf 06 1c 0a bf 34 26 8c 3f
       0.28855437 -1.046743 -0.5394901 1.0949159

l2.bias f4 [8]
000000 da b8 da 3e ac 3a 5e bd ab 66 8d be e8 1b ab be
       0.42719156 -0.054255173 -0.27617392 -0.33419728
000010 70 13 c9 3e af e9 d7 3e 26 c6 4b 3f 2d 7d 8a 3d
       0.39272642 0.42170474 0.79599226 0.06762157

l3.weight f4 [7, 8]
000000 f3 fa 5f bf 88 3a 14 3f 9b 81 8a 3e eb 88 8f be
       -0.87492293 0.5790181 0.27052006 -0.28034148
000010 00 df 89 bf 3f 57 8c bf 1b 51 04 3f a6 49 8b bf
       -1.0771179 -1.0964125 0.5168626 -1.0881851
000020 00 ef 43 bf 37 01 2a 3f 4f bc 1a be d0 c4 93 bf
       -0.7653656 0.66408104 -0.15110897 -1.1544437
000030 7a c1 a0 bf 9f 81 94 bd 3b 99 6f bf 76 d7 47 3e
       -1.2559044 -0.07251286 -0.93593186 0.19515786
000040 b2 a2 23 bf 0d 6e a7 bf ff 40 8c 3e dc 86 81 bf
       -0.6392013 -1.308046 0.27393338 -1.0119281
000050 de 39 6d bf a5 b1 a3 3f 5b c7 8f be f3 b2 34 bf
       -0.92666423 1.2788588 -0.28081784 -0.70585555
000060 9b db e1 3e 52 be 07 3d 8c ac b1 3d 22 db 96 bf
       0.44112858 0.033140488 0.08675489 -1.1785624
000070 47 4a c2 3d 0b 68 8b bf da d9 b4 bd 7f a7 84 3e
       0.094868235 -1.0891126 -0.088306144 0.2590904
000080 3f cb aa 3e 5e 52 b3 bf 58 3b bf bd 14 b0 7e 3f
       0.3335819 -1.4009511 -0.09337491 0.99487424
000090 95 e0 f0 3e c6 99 74 bf ea 12 3c bf 08 56 c5 3e
       0.47046342 -0.9554714 -0.7346636 0.385422
0000a0 95 94 32 3f a9 ca 2a bf 67 42 a1 3e 0e 88 58 bd
       0.6975797 -0.66715485 0.31495973 -0.052864127
0000b0 ab 49 b2 bf 12 fc ab ba e2 b6 81 bf 91 1a e5 3e
       -1.3928732 -0.0013121387 -1.0133936 0.4474683
0000c0 ea 59 4d bf f3 7c 88 bf 58 e8 c0 bd 28 23 d1 bd
       -0.8021532 -1.0663131 -0.09419316 -0.10211784
0000d0 3e 5d 48 3f 52 d1 a5 bf 1e 32 1c 3f e8 fb 8f bf
       0.78267276 -1.2954504 0.6101397 -1.1248751

l3.bias f4 [7]
000000 e2 6d 28 3d 0f e1 6e be 04 fd 0b 3f 20 f3 8c 3d
       0.041120417 -0.2332804 0.54682946 0.0688231
000010 6e 2f e7 be a0 e6 46 be fe 8e c5 3e
       -0.45153373 -0.19423914 0.38585657
